data.pth (torch, 17706 bytes, 6 tensors)

l1.weight f4 [8, 311]
000000 be 73 a8 be be 6e 5a 3c d8 28 dc 3d cf dc e9 3e
       -0.32900804 0.013332067 0.10749978 0.45676276
000010 f5 2f 4d 3e 2b 70 e8 bd 2e d5 44 be 6f 41 24 3e
       0.20037825 -0.11349519 -0.19221947 0.16040586
000020 42 1b 2a 3e 0f 29 02 be 6f 0d e6 3e 8b 02 31 3e
       0.1661196 -0.12710975 0.44932124 0.17286126
000030 6a e6 4b 3b 22 8c 81 be 23 42 88 bd 21 57 8e 3e
       0.003111268 -0.25302225 -0.066532396 0.2780085
000040 b3 7e a1 be 19 78 82 3c 45 63 d5 3d 53 1b 67 3e
       -0.31541976 0.015926408 0.10419325 0.22569017
000050 8c 6d 17 3e 92 e3 9e 3d 87 5a 8f be 05 e7 98 3e
       0.14787883 0.07758249 -0.27998754 0.29863754
000060 ca cc df 3d 5d 4c 35 3f 6b 01 56 3d 3c 11 9c 3e
       0.10927732 0.70819646 0.052247446 0.304819
000070 6f 38 70 3e 6d 2f d4 bd 5f 37 09 3b f4 05 72 bd
       0.23459028 -0.10360608 0.0020937545 -0.05908771
000080 8d e1 18 3e 52 f8 ac bd be 00 d9 bd 0e a8 0d 3e
       0.14929791 -0.08445801 -0.10595845 0.13833639
000090 c7 d9 24 be ca 1e 0c 3e bd 91 de bd f1 72 19 3e
       -0.160987 0.1368362 -0.10867641 0.14985253
0000a0 68 a6 4f 3f 80 0c b3 3e 8c 79 17 3e c7 25 05 3e
       0.8111329 0.34970474 0.1479246 0.13002692
0000b0 0b e3 0b 3e f9 8f da bd a1 76 9a 3e ea a0 b2 3d
       0.13660829 -0.10671992 0.30168632 0.08722098
0000c0 c5 7c bb bd 6e 80 23 3b f5 86 9e bd 30 16 93 be
       -0.09154657 0.0024948376 -0.07740585 -0.28727865
0000d0 cf b0 11 3f 2d f1 50 3d 03 03 8c 3e 21 65 a5 be
       0.56910414 0.051011253 0.27346048 -0.32303718
0000e0 f3 79 97 3d 44 53 c1 3e 90 e8 48 3d 1d cd 32 3e
       0.07396307 0.3775884 0.049049914 0.17461057
0000f0 1d 96 82 3e dd d1 ac bc a0 16 dc 3d 33 49 ae bc
       0.25505152 -0.021096164 0.10746503 -0.021275138
000100 b1 4f 44 be 0b a4 7f be e9 b9 3d 3d fc e6 be 3d
       -0.19171025 -0.24964921 0.046319876 0.093214005
000110 c2 66 db 3b 22 39 3f 3e 2d 28 8f 3e 16 cf 32 3e
       0.0066955993 0.18674138 0.2796034 0.1746181
000120 20 bf 2f be c4 76 1a 3e 2b 33 ec be 07 aa a5 3e
       -0.17162752 0.15084368 -0.46132788 0.32356283
000130 2a 07 c4 bb d9 71 c6 3e e8 18 05 3f 93 aa 23 be
       -0.0059822993 0.38758734 0.5199113 -0.15983038
000140 56 b4 96 3d ff 0b 29 bd ad c1 16 be 26 3a 3b be
       0.07358615 -0.041271206 -0.14722319 -0.182839
000150 1a 7e 2c 3e 67 cb ad 3c 8c f8 86 3e 7c 13 3d 3e
       0.16844979 0.021215154 0.263615 0.18464464
000160 50 63 12 3e 19 76 72 3d f7 43 7e bb 2b 02 c4 be
       0.14295697 0.059194658 -0.0038797834 -0.38282904
000170 76 67 4d be 24 97 80 bd b9 77 18 be 55 cd a3 3e
       -0.20058998 -0.06278828 -0.1488942 0.31992593
000180 c9 42 46 3e 7a da ca 3e 1d 29 3a 3f 62 78 ab 3d
       0.19361414 0.3961981 0.72718984 0.083725706
000190 2a 43 c0 bd 81 ef 86 3e e8 62 c1 3d 23 e7 ad 3d
       -0.093878105 0.26354602 0.09442693 0.084913515
0001a0 9f f4 69 3e 12 dc 14 3f 43 5f 15 be ca 29 3e be
       0.22847222 0.581483 -0.1458712 -0.18570629
0001b0 6e e7 c4 3e 4e 99 a7 3c a5 c6 37 3d bb db 10 3e
       0.38457817 0.020458844 0.044867177 0.1414632
0001c0 37 91 04 be 5a 6b 91 3e 00 dd 91 be 20 82 48 3f
       -0.1294602 0.28402215 -0.28488922 0.78323555
0001d0 f2 c2 6c 3e 9a 72 ad 3e e5 e3 1b be 85 df 93 3d
       0.2312124 0.33876497 -0.15223654 0.07220367
0001e0 69 85 16 bf 3e 21 23 bf b3 c7 0b bf 81 99 13 bf
       -0.5879732 -0.637226 -0.5460159 -0.57656103
0001f0 b9 17 15 3e ec e6 37 3e f0 af 16 3e 8a 13 26 3d
       0.1455983 0.17959183 0.14715552 0.040545978
000200 2e c8 db bd 66 d3 1f 3e a2 1a 2e be f1 3f 36 3e
       -0.107315406 0.15607986 -0.17002347 0.17797829
000210 93 af 14 3e 67 31 79 3e 79 5e 4a 3e e4 35 9d 3e
       0.14520101 0.24335252 0.19762601 0.30705178
000220 b9 b1 22 3e 68 6d 40 3e 41 06 af be d2 34 a0 3d
       0.15888108 0.18791735 -0.3418446 0.07822575
000230 c0 ca 27 be f5 9c 36 be 5e 2a 81 3e 90 ee 97 be
       -0.16385937 -0.17833312 0.25227636 -0.29674196
000240 c7 fe fa 3d 6b 55 07 3e 12 e3 52 3d 63 7f da 3e
       0.12255626 0.13216178 0.051486082 0.42675313
000250 f4 ab 90 be a6 2e 27 bd da b6 1f 3e e7 60 f5 3e
       -0.2825619 -0.04081597 0.15597096 0.47925493
000260 79 38 6a bd 97 0a 8f bd c3 05 8c be a9 ec 92 3e
       -0.057182763 -0.06984442 -0.27348146 0.28696182
000270 10 8c 12 3f 8d 44 3d 3e b5 34 22 be d9 57 41 bd
       0.5724497 0.18483181 -0.15840419 -0.04720292
000280 7e 4e 72 3e 32 65 99 bd e4 0d b7 3d eb 4e 92 3e
       0.23662755 -0.074900046 0.08938196 0.28575835
000290 2c 72 93 3e 48 ca b3 bc a3 d8 17 be ab 72 3e be
       0.28798044 -0.021947041 -0.14828734 -0.1859843
0002a0 e7 20 d1 3e a5 0e a9 3e e9 2e d3 3d ae 4f 08 be
       0.40845415 0.33018985 0.10311682 -0.13311645
0002b0 04 ed 09 be f0 1b 4e be d1 22 e7 3c 45 15 90 3e
       -0.1346932 -0.20127845 0.028214844 0.28141227
0002c0 20 be 90 3d 2e 6f 0f 3e f4 3c be bd e5 be 08 be
       0.070675135 0.14007255 -0.0928897 -0.1335407
0002d0 3b 94 15 be 51 e3 16 3e 4b 50 89 3e 32 cf 75 be
       -0.14607327 0.14735152 0.2681907 -0.2400482
0002e0 89 1f c0 3e 01 fc de 3e da 52 64 bd 45 35 aa 3e
       0.3752406 0.4355164 -0.055743076 0.33243766
0002f0 1c 36 29 be a8 9d ed bd 13 c0 9f bd 7a db 9c be
       -0.16524547 -0.11602336 -0.07800307 -0.30636197
000300 3f f1 a5 3e 0a 8f 3f be a7 f0 87 3d cc a5 62 3e
       0.3241062 -0.18706909 0.06637698 0.22133559
000310 ec a1 85 bd 04 e6 00 3e 22 6f 62 be 29 a8 40 bd
       -0.06525025 0.12587744 -0.22112706 -0.04703537
000320 4a f8 0b 3f c2 c0 34 3e 28 62 2a 3e c1 c5 ad 3d
       0.54675734 0.17651656 0.16639006 0.08484984
000330 22 7a 83 be 60 c5 af 3e b8 92 2d 3e 92 24 03 3d
       -0.25679117 0.34330273 0.169505 0.032017298
000340 60 3f 86 bc 79 55 88 be 10 96 68 be 12 8d 0a be
       -0.016387641 -0.2662771 -0.22713494 -0.13530377
000350 a1 e0 94 3e e6 07 3d 3d 5a 11 3d bc 5e 49 c2 3e
       0.29077628 0.04615011 -0.0115397815 0.379466
000360 a3 74 31 3e 54 c5 12 3f 1c 5b a9 bd b8 df 8d bd
       0.1732965 0.5733235 -0.08269331 -0.069274366
000370 4c 05 36 3e ca c7 43 3e 6c 89 69 be 1d 3d 0f be
       0.17775458 0.19119182 -0.22806329 -0.13988157
000380 1b 42 4a 3e 7a 42 73 be be 3d fc 3d 56 0c 71 3d
       0.1975178 -0.23755828 0.12316464 0.058849655
000390 c8 f7 0f be 3d ad 85 be 9b ad a9 3e 7a 30 12 3f
       -0.14059365 -0.26108733 0.33140263 0.5710522
0003a0 c3 4f 47 3d b0 6d 0c 3e 6c a3 9c 3e 77 5d c8 bd
       0.04866005 0.13713717 0.3059343 -0.09783452
0003b0 ac f1 22 be 3a b1 e7 bd 43 d9 13 be 65 f3 e8 3d
       -0.15912503 -0.113131 -0.14438348 0.11374549
0003c0 68 f8 b3 bd c3 94 a7 bd c5 21 97 3e 4c 87 7b 3e
       -0.08787614 -0.08182671 0.29517952 0.2456333
0003d0 01 4f 7a 3e 26 91 a0 3e 97 54 ad 3e 16 42 3e be
       0.244442 0.3136074 0.338536 -0.18579897
0003e0 3e 44 4c be 53 07 91 bd 8d 45 95 be 51 64 66 3d
       -0.19947907 -0.07081475 -0.29154626 0.056248013
0003f0 a4 3c 40 3d 86 ac c8 bd 1c f5 57 3e 46 19 66 3e
       0.04693283 -0.09798531 0.21089596 0.22470579

l1.bias f4 [8]
000000 7d 87 16 3f 25 ed 2d 3f cb 76 43 3f 5e 7c 5a 3f
       0.5880049 0.6793998 0.7635314 0.8534602
000010 4f b2 8f 3f 1f c5 15 3f 3a f3 e7 3e c4 a0 11 3f
       1.122629 0.5850391 0.45302755 0.56885934

l2.weight f4 [8, 8]
000000 c4 e5 1b bd 0a a1 a5 3f b4 43 a4 bf 5a 24 45 3f
       -0.03806092 1.293977 -1.2833161 0.77008593
000010 73 fa 2c 3f 19 17 8b 3e 72 f8 c3 be 11 08 1d 3f
       0.67569655 0.2716606 -0.38275486 0.61340433
000020 9e 0b 31 bf a2 c6 e3 bb 25 5a b2 3e c3 68 32 3f
       -0.6915835 -0.006951169 0.348344 0.69691104
000030 6d c2 39 3f 09 12 d7 3e 41 4f 89 bf 78 8c 29 3f
       0.72562295 0.42005947 -1.0727311 0.66229963
000040 9e 98 35 bf 1a 01 c4 bd e0 c9 b3 3f 4b db 8b 3f
       -0.70936 -0.095705226 1.4045982 1.0926298
000050 76 24 08 3f 9e e2 33 bf 97 ed 93 3e 9b 3c 80 3f
       0.53180635 -0.70267665 0.28892204 1.0018495
000060 34 de 2f 3f 8b fb 73 3f d7 1b f3 bc f4 f7 05 3f
       0.6869843 0.953057 -0.029676361 0.5233147
000070 da 46 9a bf 08 5e a4 bd c7 0e 68 3d eb d4 0c 3f
       -1.2052872 -0.080257475 0.056654718 0.5501239
000080 d9 29 34 3f 4b 5a 0a 3f 14 da 89 3f a9 0c e7 3e
       0.70376354 0.54044026 1.0769677 0.45126846
000090 93 ce e3 be 4f b1 96 3f be 46 3c be 6c d8 5f bf
       -0.4449354 1.177286 -0.18386361 -0.8743961
0000a0 5a 46 6b 3e 06 ef 27 3f 6f 00 09 bf 98 67 a0 3e
       0.22976056 0.65599096 -0.53516287 0.31329036
0000b0 66 e7 b9 3f 3c ed 21 3f 5b 67 1d bf 6a 63 25 bf
       1.4523742 0.63252616 -0.6148583 -0.6460482
0000c0 1a 1b 00 3e 4c 25 bd bd c3 9d 8a be 34 09 cd bd
       0.12510338 -0.092356294 -0.27073488 -0.10011521
0000d0 e6 3f d4 bd 50 77 b8 3c cf d0 7c be d7 13 82 be
       -0.1036375 0.02251783 -0.24689029 -0.25405762
0000e0 46 ce 8c 3f e7 1c 07 bf 8d 23 a8 3c 14 f3 6a 3e
       1.100045 -0.52778476 0.020524764 0.2294429
0000f0 b6 2b ec 3f a1 b3 c3 be 4b d8 a3 3f 28 10 f1 3e
       1.845084 -0.38222983 1.2800382 0.4708264

l2.bias f4 [8]
000000 36 f3 0a 3f e8 73 cc be 6e a4 2c 3f 82 f7 26 bf
       0.5427736 -0.3993218 0.674384 -0.65221417
000010 e8 33 04 3f b8 bb 8b 3e fd fe 4e be 1f d0 c3 3e
       0.516417 0.27291656 -0.20214458 0.3824472

l3.weight f4 [10, 8]
000000 50 db fd 3d df 7e 19 bf c5 ec a0 bf 81 fd a1 3e
       0.12395346 -0.59959215 -1.2572256 0.3163872
000010 93 38 2c 3e 48 7e 5e 3d 07 26 85 3e 7f a5 8d bf
       0.16818456 0.05431965 0.26005575 -1.106613
000020 7f 94 a7 bf ee 00 1f be 01 42 0c 3f a9 65 58 bf
       -1.3092192 -0.15527698 0.54788214 -0.8453012
000030 e7 30 a2 bf de fd ac bf d3 99 89 3e b5 66 1d 3f
       -1.2671174 -1.3514974 0.2687517 0.61484843
000040 56 25 9a 3e 31 09 07 3f f6 07 a1 bc 70 8d eb 3e
       0.3010661 0.527484 -0.019657116 0.46006346
000050 6a 39 5f bf de 6c 75 bf 10 ed a5 be ad 63 96 bf
       -0.8719698 -0.95869243 -0.32407427 -1.1749169
000060 ce 39 14 3f a8 2b 0c c0 77 8f b0 bf 14 02 1b c0
       0.579007 -2.1901646 -1.3793782 -2.4220018
000070 bd e6 c0 3e 18 7d 3e 3f 0c 95 80 be 0e d7 03 3e
       0.3767604 0.7440963 -0.25113714 0.12875006
000080 ad 11 42 3f 29 b9 98 bd 30 37 f2 3e aa bd c6 bf
       0.7580822 -0.074571915 0.4730773 -1.5526631
000090 75 e9 03 c0 9c 7e 5c 3c 20 8c 6c bc 70 ee cf 3c
       -2.061124 0.01345792 -0.014437705 0.02538225
0000a0 83 11 a9 3e 5b d6 8e bf dc f9 12 bf 2d 5f 41 3f
       0.33021173 -1.1159166 -0.57412505 0.7553585
0000b0 1c 7d 8a bf ec e5 94 bf 48 8f 9e bd 4e be ee 3d
       -1.081943 -1.1632667 -0.077421725 0.116573915
0000c0 f3 9d 16 3d 2f b5 0d 3f 6f 2b 2b bf 1d fe 32 bf
       0.036771726 0.5535459 -0.6686315 -0.69918996
0000d0 78 5d ad bd 2c f6 ba 3e 70 d9 00 3e df 06 38 bf
       -0.084650934 0.3651594 0.12582946 -0.71885484
0000e0 34 07 bb bf 63 2e 96 3e ec bd e0 3e ff 93 d4 bf
       -1.4611573 0.29332265 0.438949 -1.6607665
0000f0 69 5a 81 3f 4a a0 32 be 54 05 aa be 14 bf 9b bf
       1.0105716 -0.17443958 -0.3320719 -1.2167687
000100 65 30 24 bf 0d 1e 97 bf 35 5f 8b 3e e8 3d 77 3e
       -0.64136344 -1.1806046 0.27221075 0.24144709
000110 d2 b5 a5 be 13 39 f0 bf 06 a3 e9 bd 66 a0 2f 3e
       -0.3236528 -1.8767418 -0.114080474 0.17151031
000120 d5 e8 86 bf b6 79 d2 be 46 9f a1 bf f6 47 db bd
       -1.0539805 -0.41108483 -1.2626731 -0.10707085
000130 51 45 76 3e eb 35 4f bf dd c6 a1 be 01 14 22 3f
       0.2404988 -0.8094165 -0.31597033 0.63311774

l3.bias f4 [10]
000000 c0 e6 07 be 50 01 f5 bd 17 e3 7c be b9 d1 0f 3f
       -0.13271618 -0.11963141 -0.24696003 0.56179386
000010 0d c4 51 3e fa cf 91 be 66 92 38 bf 63 d1 bc 3e
       0.20484944 -0.28478986 -0.72098386 0.368785
000020 0b 96 dd be 89 b7 38 3e
       -0.43278536 0.18038763
